ISL_DATA/B/B_0.npy (npy, 632 bytes, 1 tensors)

array f8 [63]
0	0x3fe153d500000000	0.5414834022521973
1	0x3fee23fd80000000	0.9418933391571045
2	0x3ea196b580000000	5.241843155090464e-07
3	0x3fe290e2a0000000	0.5801861882209778
4	0x3feb8ccdc0000000	0.8609379529953003
5	0x3f85e825c0000000	0.010696692392230034
6	0x3fe2867660000000	0.5789138674736023
7	0x3fe8e64900000000	0.7781109809875488
8	0x3f7ad2e860000000	0.006548793520778418
9	0x3fe1660ca0000000	0.5437071919441223
10	0x3fe79fbbc0000000	0.7382487058639526
11	0xbf596cd560000000	-0.0015518268337473273
12	0x3fe0219440000000	0.5040990114212036
13	0x3fe744ee20000000	0.7271643280982971
14	0xbf881a2fa0000000	-0.011768695898354053
15	0x3fe2cab5c0000000	0.5872448682785034
16	0x3fe7ae3700000000	0.7400164604187012
17	0xbf9071f520000000	-0.016059713438153267
18	0x3fe24d4dc0000000	0.5719364881515503
19	0x3fe4047b40000000	0.6255470514297485
20	0xbf9c9f5e00000000	-0.027951687574386597
21	0x3fe208d020000000	0.563575804233551
22	0x3fe2020f80000000	0.5627515316009521
23	0xbfa0b1f620000000	-0.03260773792862892
24	0x3fe1c3d060000000	0.5551530718803406
25	0x3fe070c8a0000000	0.5137675404548645
26	0xbfa1229a00000000	-0.033467113971710205
27	0x3fe1735c20000000	0.5453320145606995
28	0x3fe7d1bb80000000	0.7443521022796631
29	0xbf9e373c40000000	-0.029507581144571304
30	0x3fe0caf8e0000000	0.5247768759727478
31	0x3fe3dc5000000000	0.6206436157226562
32	0xbfa3d056e0000000	-0.03869887813925743
33	0x3fe06c68e0000000	0.5132336020469666
34	0x3fe18601c0000000	0.5476082563400269
35	0xbfa5629aa0000000	-0.0417679138481617
36	0x3fe0120a20000000	0.5022020936012268
37	0x3fdf8688c0000000	0.49258631467819214
38	0xbfa5faf9c0000000	-0.04293041676282883
39	0x3fe018f500000000	0.5030465126037598
40	0x3fe8636840000000	0.7621346712112427
41	0xbfa45fcc60000000	-0.039793383330106735
42	0x3fded061a0000000	0.4814685881137848
43	0x3fe5707420000000	0.6699772477149963
44	0xbfa892dc40000000	-0.04799545556306839
45	0x3fdf3e3f80000000	0.48817431926727295
46	0x3fe66d1080000000	0.7008135318756104
47	0xbfa45a9920000000	-0.039753708988428116
48	0x3fdf8c3520000000	0.49293258786201477
49	0x3fe77fd460000000	0.7343541979789734
50	0xbf9e7cbf60000000	-0.029772749170660973
51	0x3fddcaf960000000	0.46551355719566345
52	0x3fe93a06a0000000	0.7883332371711731
53	0xbfa8fd2020000000	-0.048806194216012955
54	0x3fdd4e6140000000	0.4579089283943176
55	0x3fe722c460000000	0.7229940295219421
56	0xbfa8bb61c0000000	-0.04830460995435715
57	0x3fddfeb240000000	0.46867042779922485
58	0x3fe7bfbca0000000	0.7421553730964661
59	0xbfa0d9b940000000	-0.03291109949350357
60	0x3fde6e9b60000000	0.4755009114742279
61	0x3fe8824520000000	0.7659021019935608
62	0xbf93588560000000	-0.01889236830174923
