ISL_DATA/B/B_1.npy (npy, 632 bytes, 1 tensors)

array f8 [63]
0	0x3fde6d9e40000000	0.4754405617713928
1	0x3fec6d35c0000000	0.8883312940597534
2	0x3e7d7a7980000000	1.0981565878864785e-07
3	0x3fdb017f20000000	0.4219663441181183
4	0x3fe9f5dbc0000000	0.8112620115280151
5	0xbf7868ca60000000	-0.005959311034530401
6	0x3fda4ac140000000	0.4108126759529114
7	0x3fe808fc80000000	0.7510969638824463
8	0xbf94fddda0000000	-0.02049967087805271
9	0x3fd9dad5a0000000	0.40398159623146057
10	0x3fe64d00a0000000	0.6968997120857239
11	0xbfa4683460000000	-0.039857517927885056
12	0x3fd9ee7340000000	0.40517884492874146
13	0x3fe4ee2480000000	0.6540701389312744
14	0xbfad768a60000000	-0.0575450174510479
15	0x3fdfe5c4a0000000	0.49839892983436584
16	0x3fe53c4360000000	0.6636063456535339
17	0xbf76a2a740000000	-0.00552621204406023
18	0x3fdd5faa40000000	0.45896393060684204
19	0x3fe2cdcac0000000	0.5876210927963257
20	0xbf9bc14060000000	-0.02710438333451748
21	0x3fdc0e82e0000000	0.4383856952190399
22	0x3fe125a500000000	0.5358452796936035
23	0xbfa6b0e7c0000000	-0.04431843012571335
24	0x3fdb08dba0000000	0.4224156439304352
25	0x3fdf44ffc0000000	0.4885863661766052
26	0xbfad8e2680000000	-0.057725146412849426
27	0x3fe06b4e60000000	0.5130988955497742
28	0x3fe554e180000000	0.6666114330291748
29	0xbf93368880000000	-0.01876271516084671
30	0x3fdd7ef7a0000000	0.46087446808815
31	0x3fe276d840000000	0.5770074129104614
32	0xbfa6ee4880000000	-0.04478670656681061
33	0x3fdbc40100000000	0.4338381290435791
34	0x3fe0d6d400000000	0.5262241363525391
35	0xbfb003d2e0000000	-0.06255834549665451
36	0x3fdab75ac0000000	0.41744107007980347
37	0x3fdefca960000000	0.4841712415218353
38	0xbfb318c720000000	-0.0745968297123909
39	0x3fe058c480000000	0.5108358860015869
40	0x3fe5ec10e0000000	0.6850666403770447
41	0xbfa0f301a0000000	-0.03310399129986763
42	0x3fdb5173c0000000	0.426846444606781
43	0x3fe49abc80000000	0.6438887119293213
44	0xbfada75200000000	-0.05791717767715454
45	0x3fda733c60000000	0.41328343749046326
46	0x3fe67ff520000000	0.7031198143959045
47	0xbfaae4ef20000000	-0.05252787843346596
48	0x3fdad55ee0000000	0.41927310824394226
49	0x3fe7d6a940000000	0.7449537515640259
50	0xbfa6abb120000000	-0.04427865520119667
51	0x3fdf87ac80000000	0.492655873298645
52	0x3fe6c581c0000000	0.7116097211837769
53	0xbfa9465880000000	-0.04936482012271881
54	0x3fdb0ced60000000	0.42266401648521423
55	0x3fe634cca0000000	0.6939452290534973
56	0xbfb0e1ed20000000	-0.06594736129045486
57	0x3fda64b5c0000000	0.4123968482017517
58	0x3fe789cda0000000	0.7355716824531555
59	0xbfaf0b6a00000000	-0.060633957386016846
60	0x3fdae3f940000000	0.42016440629959106
61	0x3fe8875be0000000	0.7665233016014099
62	0xbfab6a4d80000000	-0.053545400500297546
