ISL_DATA/B/B_10.npy (npy, 632 bytes, 1 tensors)

array f8 [63]
00000000: 0000 0000 e215 e43f 0000 00e0 6b47 ec3f
00000010: 0000 0000 6821 943e 0000 00a0 537b e53f
00000020: 0000 00e0 5ab7 e93f 0000 0060 01f3 85bf
00000030: 0000 00c0 d1b1 e53f 0000 0060 4d44 e63f
00000040: 0000 0040 4051 a3bf 0000 0040 1ba5 e43f
00000050: 0000 0080 c87a e33f 0000 00e0 8b01 afbf
00000060: 0000 0080 4f4a e33f 0000 00a0 2ccd e13f
00000070: 0000 00c0 f838 b6bf 0000 00c0 30b1 e63f
00000080: 0000 00a0 7e50 e63f 0000 0040 9ea1 b9bf
00000090: 0000 00c0 54df e53f 0000 00e0 cf8e e13f
000000a0: 0000 00c0 c56b c1bf 0000 00e0 455c e53f
000000b0: 0000 00c0 0fc3 dd3f 0000 0040 f4bc c3bf
000000c0: 0000 0000 3af8 e43f 0000 0000 4346 d93f
000000d0: 0000 0000 da2e c5bf 0000 0040 3d34 e53f
000000e0: 0000 00e0 af7e e73f 0000 0040 bf41 bcbf
000000f0: 0000 00e0 de89 e33f 0000 00a0 93e9 e13f
00000100: 0000 0040 5d4d c2bf 0000 0060 3c89 e23f
00000110: 0000 00c0 8cad dd3f 0000 0060 d950 c3bf
00000120: 0000 00a0 2ec2 e13f 0000 00c0 2f04 d93f
00000130: 0000 0020 4555 c4bf 0000 00a0 c971 e33f
00000140: 0000 0060 5258 e83f 0000 00c0 4862 bdbf
00000150: 0000 0020 e3c0 e13f 0000 00a0 7511 e33f
00000160: 0000 0020 f70f c2bf 0000 0000 c722 e23f
00000170: 0000 0060 6cd2 e33f 0000 0080 cecb bfbf
00000180: 0000 00e0 ac9a e23f 0000 0080 4c41 e53f
00000190: 0000 0000 ca04 bcbf 0000 0080 6eac e13f
000001a0: 0000 0080 add3 e83f 0000 0000 ad61 bebf
000001b0: 0000 0040 9cd3 e03f 0000 00e0 a392 e43f
000001c0: 0000 0020 75e7 c1bf 0000 0060 d83d e13f
000001d0: 0000 0060 2ffe e43f 0000 0020 d80e c0bf
000001e0: 0000 0020 fcb1 e13f 0000 00a0 171a e63f
000001f0: 0000 0020 506e bcbf
0.6276712417602539 0.8837184309959412 2.9996772354934365e-07 0.6713045239448547 0.8036321997642517 -0.010717402212321758 0.6779564619064331 0.695837676525116
-0.03772927075624466 0.645154595375061 0.6087381839752197 -0.06055867299437523 0.6028211116790771 0.5562956929206848 -0.08680681884288788 0.7091296911239624
0.6973260045051575 -0.1001223474740982 0.6835120916366577 0.5486831068992615 -0.13610145449638367 0.6675137877464294 0.46503061056137085 -0.15420392155647278
0.6553010940551758 0.3949134349822998 -0.16549229621887207 0.6626268625259399 0.734214723110199 -0.1103782206773758 0.6105799078941345 0.5597627758979797
-0.1429859697818756 0.5792524218559265 0.46371763944625854 -0.1509048193693161 0.5549538731575012 0.3908805251121521 -0.1588522344827652 0.6076400876045227
0.760781466960907 -0.11478094756603241 0.5547958016395569 0.5958812832832336 -0.14111222326755524 0.5667452812194824 0.6194364428520203 -0.12420359253883362
0.5813812613487244 0.6642210483551025 -0.10944807529449463 0.5522987842559814 0.7758395671844482 -0.11867791414260864 0.5258313417434692 0.6429004073143005
-0.13987602293491364 0.5387994647026062 0.6560284495353699 -0.12545301020145416 0.552976667881012 0.6906850934028625 -0.11105824261903763
