ISL_DATA/B/B_11.npy (npy, 632 bytes, 1 tensors)

array f8 [63]
000000 00 00 00 80 2b 6d e3 3f 00 00 00 a0 e9 af e7 3f
       0.6070764064788818 0.7402237057685852
000010 00 00 00 e0 93 0e 83 3e 00 00 00 00 fb 13 e4 3f
       1.419852964090751e-07 0.627439022064209
000020 00 00 00 80 78 0b e6 3f 00 00 00 c0 a5 ff 79 3f
       0.6889002323150635 0.006347320042550564
000030 00 00 00 c0 2d 21 e4 3f 00 00 00 e0 d2 31 e4 3f
       0.6290501356124878 0.6310819983482361
000040 00 00 00 60 59 10 71 3f 00 00 00 60 5f 9c e3 3f
       0.004165982361882925 0.6128384470939636
000050 00 00 00 40 cb e6 e2 3f 00 00 00 c0 61 b3 2c bf
       0.5906730890274048 -0.00021896904218010604
000060 00 00 00 40 35 ea e2 3f 00 00 00 00 e2 68 e2 3f
       0.5910898447036743 0.5753030776977539
000070 00 00 00 a0 15 4e 77 bf 00 00 00 80 65 58 e4 3f
       -0.005689701531082392 0.6357905864715576
000080 00 00 00 a0 7a 34 e3 3f 00 00 00 00 94 24 86 bf
       0.6001561284065247 -0.010811954736709595
000090 00 00 00 60 b1 ea e3 3f 00 00 00 80 70 06 e1 3f
       0.6223990321159363 0.5320360660552979
0000a0 00 00 00 00 d9 31 95 bf 00 00 00 60 0a b8 e3 3f
       -0.02069796621799469 0.6162158846855164
0000b0 00 00 00 a0 c6 76 df 3f 00 00 00 80 d0 a1 99 bf
       0.49162450432777405 -0.025031335651874542
0000c0 00 00 00 80 9c 82 e3 3f 00 00 00 40 f0 78 dd 3f
       0.6096937656402588 0.46050649881362915
0000d0 00 00 00 00 02 5a 9b bf 00 00 00 c0 a9 ab e3 3f
       -0.026710540056228638 0.614704966545105
0000e0 00 00 00 80 6b 59 e3 3f 00 00 00 c0 37 fb 93 bf
       0.6046655178070068 -0.019513007253408432
0000f0 00 00 00 60 14 d2 e2 3f 00 00 00 80 31 0b e1 3f
       0.5881444811820984 0.532616376876831
000100 00 00 00 80 b7 a4 9d bf 00 00 00 c0 df 4a e2 3f
       -0.02894865721464157 0.571639895439148
000110 00 00 00 00 b1 80 df 3f 00 00 00 20 fa 7a a0 bf
       0.492229700088501 -0.03218824043869972
000120 00 00 00 20 d2 de e1 3f 00 00 00 00 f8 84 dd 3f
       0.5584498047828674 0.4612407684326172
000130 00 00 00 40 67 2a a1 bf 00 00 00 80 1c ec e2 3f
       -0.03352663666009903 0.5913221836090088
000140 00 00 00 60 92 bf e3 3f 00 00 00 60 c1 08 9b bf
       0.617135226726532 -0.02640058659017086
000150 00 00 00 a0 5c da e1 3f 00 00 00 e0 65 66 e2 3f
       0.5579054951667786 0.5749997496604919
000160 00 00 00 60 ea 9f a1 bf 00 00 00 20 2f dc e1 3f
       -0.034423183649778366 0.5581279397010803
000170 00 00 00 c0 67 11 e3 3f 00 00 00 a0 08 1a 9f bf
       0.5958746671676636 -0.030372748151421547
000180 00 00 00 40 5a 13 e2 3f 00 00 00 80 66 a9 e3 3f
       0.5648623704910278 0.6144287586212158
000190 00 00 00 e0 34 79 99 bf 00 00 00 80 3d 2b e2 3f
       -0.02487642876803875 0.5677783489227295
0001a0 00 00 00 60 89 47 e4 3f 00 00 00 20 ed c3 a0 bf
       0.6337324976921082 -0.03274479880928993
0001b0 00 00 00 60 31 75 e1 3f 00 00 00 80 25 76 e3 3f
       0.5455557703971863 0.6081721782684326
0001c0 00 00 00 00 7a 4d a2 bf 00 00 00 20 70 85 e1 3f
       -0.03574734926223755 0.5475388169288635
0001d0 00 00 00 40 83 03 e4 3f 00 00 00 00 63 df 9d bf
       0.6254287958145142 -0.029172465205192566
0001e0 00 00 00 80 f9 c1 e1 3f 00 00 00 00 bd 77 e4 3f
       0.5549285411834717 0.6396164894104004
0001f0 00 00 00 60 3a ea 96 bf
       -0.02237788401544094
