ISL_DATA/B/B_12.npy (npy, 632 bytes, 1 tensors)

array f8 [63]
00000000: 0000 0080 5d06 b43f 0000 0060 aee9 e83f
00000010: 0000 0040 a8d3 963e 0000 0040 32ac b13f
00000020: 0000 0040 6996 e63f 0000 0060 1edd 923f
00000030: 0000 00c0 184d b43f 0000 0020 59b6 e43f
00000040: 0000 0000 b262 943f 0000 00c0 b061 ba3f
00000050: 0000 0000 328f e33f 0000 00a0 c87e 8f3f
00000060: 0000 00c0 cd6f c03f 0000 0040 5c04 e33f
00000070: 0000 00c0 9973 873f 0000 0080 fc53 b33f
00000080: 0000 0080 2576 e33f 0000 0060 62b4 733f
00000090: 0000 0000 d825 b63f 0000 0020 08f7 e03f
000000a0: 0000 00a0 d33f 6fbf 0000 0060 ee06 b73f
000000b0: 0000 0040 ede5 de3f 0000 0020 bcff 77bf
000000c0: 0000 0040 dc24 b73f 0000 0080 c898 dc3f
000000d0: 0000 00a0 7820 78bf 0000 0040 07cc b83f
000000e0: 0000 00e0 345e e33f 0000 0080 3ac2 88bf
000000f0: 0000 0020 7892 c03f 0000 0060 92af e03f
00000100: 0000 00c0 4983 96bf 0000 0080 ed1d c33f
00000110: 0000 0000 5ab1 de3f 0000 00c0 6afd 9bbf
00000120: 0000 0080 330f c53f 0000 00e0 dada dc3f
00000130: 0000 0040 7c28 9dbf 0000 00c0 3d29 bf3f
00000140: 0000 00e0 dad4 e33f 0000 0080 0e13 9bbf
00000150: 0000 0020 a66c c63f 0000 0020 d947 e33f
00000160: 0000 0000 cf58 9fbf 0000 00c0 855e c63f
00000170: 0000 0060 6f19 e43f 0000 0040 2f4c 98bf
00000180: 0000 0060 372d c53f 0000 0060 da8d e43f
00000190: 0000 0080 1366 90bf 0000 00e0 b1e2 c23f
000001a0: 0000 00a0 9ab2 e43f 0000 0040 d493 a4bf
000001b0: 0000 0000 b6fb c73f 0000 0080 feaa e43f
000001c0: 0000 00a0 6668 a1bf 0000 00e0 d960 c73f
000001d0: 0000 0000 655a e53f 0000 0000 d62d 96bf
000001e0: 0000 0000 afb6 c53f 0000 0040 abb5 e53f
000001f0: 0000 00a0 17a6 86bf
0.0782221257686615 0.7785255312919617 3.401456183382834e-07 0.06903375685214996 0.7058607339859009 0.018421625718474388 0.07930140197277069 0.6472592949867249
0.019907742738723755 0.10305313766002655 0.6112298965454102 0.015378539450466633 0.12841197848320007 0.5942822694778442 0.011450959369540215 0.07550027966499329
0.6081721782684326 0.004810699727386236 0.08651494979858398 0.5301552414894104 -0.003814614610746503 0.08994951099157333 0.48278361558914185 -0.005859122145920992
0.09040619432926178 0.44682514667510986 -0.005890341941267252 0.09686322510242462 0.60524982213974 -0.012089211493730545 0.1294698864221573 0.521432101726532
-0.02198519930243492 0.1493508219718933 0.47957468032836914 -0.027333896607160568 0.16452640295028687 0.45085784792900085 -0.028474751859903336 0.12172304093837738
0.6197332739830017 -0.026439882814884186 0.17519070208072662 0.6025205254554749 -0.030612215399742126 0.17475959658622742 0.6281048655509949 -0.02372812107205391
0.16544239223003387 0.6423160433769226 -0.01601438969373703 0.14754317700862885 0.6468022465705872 -0.04019034653902054 0.18736910820007324 0.6458733081817627
-0.03399964049458504 0.18264316022396088 0.6672844886779785 -0.02165922522544861 0.1696375608444214 0.6784263849258423 -0.011058983393013477
