ISL_DATA/B/B_2.npy (npy, 632 bytes, 1 tensors)

array f8 [63]
0.6542145013809204 0.8459138870239258 6.587873713215231e-07 0.6072548031806946 0.8196009397506714 -0.03516784682869911 0.5859348177909851 0.7616816759109497
-0.05733992159366608 0.6229657530784607 0.7204765677452087 -0.07823760062456131 0.66108638048172 0.6896834969520569 -0.09738598763942719 0.5950355529785156
0.6356340646743774 -0.04033522680401802 0.5819166898727417 0.5451235771179199 -0.06776755303144455 0.5731630325317383 0.48711276054382324 -0.08463092148303986
0.5674877166748047 0.435103178024292 -0.09611722081899643 0.6385613083839417 0.6266041994094849 -0.04284565523266792 0.6475319266319275 0.5265048146247864
-0.0730789452791214 0.6538450717926025 0.46036142110824585 -0.09124195575714111 0.659741997718811 0.40188702940940857 -0.10114292055368423 0.6748448610305786
0.6464524269104004 -0.048654086887836456 0.6956536769866943 0.6124451160430908 -0.08668701350688934 0.6787145733833313 0.670690655708313 -0.09161357581615448
0.6624565124511719 0.7130947113037109 -0.08543755859136581 0.70406574010849 0.6826304197311401 -0.05729775130748749 0.7131989002227783 0.6659020781517029
-0.08608021587133408 0.6962826251983643 0.7110083699226379 -0.08518387377262115 0.6794643402099609 0.7454869747161865 -0.07839437574148178
00000000: 0000 0040 53ef e43f 0000 0000 ba11 eb3f
00000010: 0000 00c0 f01a a63e 0000 00a0 a16e e33f
00000020: 0000 00c0 2b3a ea3f 0000 0020 8501 a2bf
00000030: 0000 0060 fabf e23f 0000 0040 b25f e83f
00000040: 0000 0080 a85b adbf 0000 00e0 55ef e33f
00000050: 0000 00e0 240e e73f 0000 0020 6107 b4bf
00000060: 0000 00a0 9e27 e53f 0000 0020 e311 e63f
00000070: 0000 00c0 49ee b8bf 0000 0000 880a e33f
00000080: 0000 0040 1d57 e43f 0000 00a0 d1a6 a4bf
00000090: 0000 00c0 0f9f e23f 0000 0000 a771 e13f
000000a0: 0000 00e0 3659 b1bf 0000 0000 5a57 e23f
000000b0: 0000 0000 db2c df3f 0000 0040 5faa b5bf
000000c0: 0000 0000 dc28 e23f 0000 0000 bbd8 db3f
000000d0: 0000 0060 239b b8bf 0000 0020 186f e43f
000000e0: 0000 0040 240d e43f 0000 00a0 ddef a5bf
000000f0: 0000 00e0 94b8 e43f 0000 00a0 20d9 e03f
00000100: 0000 0040 4db5 b2bf 0000 0080 4cec e43f
00000110: 0000 00c0 8f76 dd3f 0000 0000 a25b b7bf
00000120: 0000 0040 9b1c e53f 0000 0060 84b8 d93f
00000130: 0000 00a0 80e4 b9bf 0000 0040 5498 e53f
00000140: 0000 0000 bdaf e43f 0000 0040 30e9 a8bf
00000150: 0000 0080 cb42 e63f 0000 0080 2699 e33f
00000160: 0000 00c0 1e31 b6bf 0000 00a0 07b8 e53f
00000170: 0000 0040 4c76 e53f 0000 00c0 fc73 b7bf
00000180: 0000 0000 d832 e53f 0000 0000 acd1 e63f
00000190: 0000 0060 3cdf b5bf 0000 00e0 b487 e63f
000001a0: 0000 00c0 1bd8 e53f 0000 0080 2156 adbf
000001b0: 0000 0080 86d2 e63f 0000 00e0 114f e53f
000001c0: 0000 0060 5a09 b6bf 0000 0080 f247 e63f
000001d0: 0000 00a0 94c0 e63f 0000 0040 9cce b5bf
000001e0: 0000 0000 2cbe e53f 0000 0080 07db e73f
000001f0: 0000 0060 a711 b4bf
