ISL_DATA/B/B_3.npy (npy, 632 bytes, 1 tensors)

array f8 [63]
0	0x3fe2cfc660000000	0.5878631472587585
1	0x3fe7cc7040000000	0.7437058687210083
2	0x3e9cbfb7c0000000	4.2839195657506934e-07
3	0x3fe1702000000000	0.5449371337890625
4	0x3fe6c205a0000000	0.7111843228340149
5	0xbf972ad960000000	-0.022624393925070763
6	0x3fe0e4d7e0000000	0.5279349684715271
7	0x3fe4be5a20000000	0.6482363343238831
8	0xbfa1cb2e20000000	-0.03475326672196388
9	0x3fe1e0fda0000000	0.5587146878242493
10	0x3fe333cac0000000	0.6000722646713257
11	0xbfa89e9420000000	-0.04808485880494118
12	0x3fe2d0e2a0000000	0.5879986882209778
13	0x3fe2079ec0000000	0.5634301900863647
14	0xbfaeeda880000000	-0.06040693819522858
15	0x3fe123e800000000	0.5356330871582031
16	0x3fe1ba16c0000000	0.5539659261703491
17	0xbf8d7e69c0000000	-0.0144012700766325
18	0x3fe0aefbe0000000	0.5213603377342224
19	0x3fdecd6080000000	0.4812852144241333
20	0xbfa108d4e0000000	-0.03327050432562828
21	0x3fe0678ae0000000	0.5126394629478455
22	0x3fdbe0a580000000	0.4355863332748413
23	0xbfa745c280000000	-0.04545409977436066
24	0x3fe0378960000000	0.5067793726921082
25	0x3fd95531c0000000	0.3958248496055603
26	0xbfab74e220000000	-0.05362612381577492
27	0x3fe251c140000000	0.5724798440933228
28	0x3fe19377c0000000	0.5492514371871948
29	0xbf9468cfa0000000	-0.019931072369217873
30	0x3fe25e3d20000000	0.5740037560462952
31	0x3fddbb7ca0000000	0.46456828713417053
32	0xbfa4b6df80000000	-0.04045771062374115
33	0x3fe239c8c0000000	0.5695537328720093
34	0x3fda6e45c0000000	0.41298049688339233
35	0xbfabbf3c80000000	-0.054193392395973206
36	0x3fe22ddcc0000000	0.5680984258651733
37	0x3fd78adf40000000	0.3678510785102844
38	0xbfaf807340000000	-0.06152687221765518
39	0x3fe35edd20000000	0.6053300499916077
40	0x3fe235ea20000000	0.5690813660621643
41	0xbf9d97c600000000	-0.028899282217025757
42	0x3fe391c0a0000000	0.6115420460700989
43	0x3fe0966820000000	0.5183601975440979
44	0xbfae9f4ea0000000	-0.05980916693806648
45	0x3fe3155d80000000	0.596358060836792
46	0x3fe25cc700000000	0.5738253593444824
47	0xbfafb28500000000	-0.061908870935440063
48	0x3fe2d50f80000000	0.5885083675384521
49	0x3fe39af6a0000000	0.6126664280891418
50	0xbfac187c60000000	-0.05487431213259697
51	0x3fe4403900000000	0.6328396797180176
52	0x3fe3566780000000	0.604297399520874
53	0xbfa451dc60000000	-0.03968704864382744
54	0x3fe42ee700000000	0.6307253837585449
55	0x3fe242b480000000	0.5706427097320557
56	0xbfb0231440000000	-0.0630352646112442
57	0x3fe3b43720000000	0.615748941898346
58	0x3fe37ed620000000	0.6092329621315002
59	0xbfae7149e0000000	-0.05945807322859764
60	0x3fe374fb40000000	0.6080299615859985
61	0x3fe4715460000000	0.6388341784477234
62	0xbfaa64c800000000	-0.05155014991760254
