ISL_DATA/B/B_4.npy (npy, 632 bytes, 1 tensors)

array f8 [63]
0	0x3fcb1e4120000000	0.211860790848732
1	0x3ff032a6c0000000	1.0123660564422607
2	0x3eb238b3c0000000	1.0860856036742916e-06
3	0x3fd2e8bc20000000	0.2954550087451935
4	0x3fedcda3a0000000	0.931352436542511
5	0xbfaa507420000000	-0.05139506235718727
6	0x3fd4ec27c0000000	0.3269137740135193
7	0x3fe926e3e0000000	0.7859973311424255
8	0xbfb2307060000000	-0.07105161994695663
9	0x3fcfcb8820000000	0.2483987957239151
10	0x3fe61f64e0000000	0.6913322806358337
11	0xbfb7167ac0000000	-0.09018675982952118
12	0x3fc5787cc0000000	0.16773948073387146
13	0x3fe45db6a0000000	0.6364396214485168
14	0xbfbb2b9aa0000000	-0.1061340942978859
15	0x3fd3450360000000	0.30108723044395447
16	0x3fe3a6e880000000	0.6141245365142822
17	0xbf9ac1cd20000000	-0.026129918172955513
18	0x3fd4c77420000000	0.32467368245124817
19	0x3fddd0e920000000	0.46587589383125305
20	0xbfaf7e0880000000	-0.061508432030677795
21	0x3fd5422fc0000000	0.3321647047996521
22	0x3fd7cd5f00000000	0.37190985679626465
23	0xbfb57ae340000000	-0.08390636742115021
24	0x3fd5785e20000000	0.33547165989875793
25	0x3fd269fbc0000000	0.2877187132835388
26	0xbfb93e8c80000000	-0.09861066937446594
27	0x3fccc937e0000000	0.22489069402217865
28	0x3fe3bd7ac0000000	0.6168798208236694
29	0xbfa0e05840000000	-0.032961614429950714
30	0x3fcb5e78c0000000	0.21382054686546326
31	0x3fdbf04020000000	0.4365387260913849
32	0xbfb4206c80000000	-0.07861974835395813
33	0x3fcabd7300000000	0.20890653133392334
34	0x3fd4b61800000000	0.32361412048339844
35	0xbfbb4949a0000000	-0.10658702999353409
36	0x3fc9b83000000000	0.20093345642089844
37	0x3fcd5375c0000000	0.2291094958782196
38	0xbfbe6aad40000000	-0.11881525814533234
39	0x3fc48db3e0000000	0.16057442128658295
40	0x3fe5576e80000000	0.6669228076934814
41	0xbfa7fa2000000000	-0.046830177307128906
42	0x3fc27f1340000000	0.14450302720069885
43	0x3fe2b4db40000000	0.584577202796936
44	0xbfc04d7580000000	-0.12736386060714722
45	0x3fc7968400000000	0.1842808723449707
46	0x3fe5eaf860000000	0.6849328875541687
47	0xbfc28fd4c0000000	-0.14501437544822693
48	0x3fca843d40000000	0.20716062188148499
49	0x3fe857a9a0000000	0.7607010006904602
50	0xbfc1089340000000	-0.13307419419288635
51	0x3fbad26100000000	0.10477262735366821
52	0x3fe7da9de0000000	0.7454366087913513
53	0xbfb02b5c60000000	-0.06316163390874863
54	0x3fbebfe1c0000000	0.12011538445949554
55	0x3fe6801e20000000	0.7031393647193909
56	0xbfc1501080000000	-0.1352558732032776
57	0x3fc561c080000000	0.16704565286636353
58	0x3fe8ec9d00000000	0.7788834571838379
59	0xbfc25cfca0000000	-0.14346273243427277
60	0x3fc91f6c40000000	0.19627144932746887
61	0x3feada7cc0000000	0.8391708135604858
62	0xbfc0eeff60000000	-0.13229362666606903
