ISL_DATA/B/B_7.npy (npy, 632 bytes, 1 tensors)

array f8 [63]
000000 00 00 00 00 ca 43 e5 3f 00 00 00 80 92 a5 ec 3f
       0.664525032043457 0.8952114582061768
000010 00 00 00 40 a6 08 90 3e 00 00 00 80 c0 44 e3 3f
       2.389220412624127e-07 0.6021425724029541
000020 00 00 00 40 55 a9 ea 3f 00 00 00 20 8f 32 98 bf
       0.8331705331802368 -0.02363036759197712
000030 00 00 00 00 0d 9d e1 3f 00 00 00 e0 52 1e e7 3f
       0.5504212379455566 0.7224516272544861
000040 00 00 00 20 8e 19 a4 bf 00 00 00 a0 d2 95 e1 3f
       -0.0392574705183506 0.5495389103889465
000050 00 00 00 20 78 6e e4 3f 00 00 00 a0 b8 03 af bf
       0.6384850144386292 -0.06057526543736458
000060 00 00 00 80 cf ff e2 3f 00 00 00 a0 df dd e2 3f
       0.5937268733978271 0.5895841717720032
000070 00 00 00 80 17 55 b4 bf 00 00 00 e0 08 26 e3 3f
       -0.07942339777946472 0.598392903804779
000080 00 00 00 a0 c6 f2 e1 3f 00 00 00 00 93 f9 7a bf
       0.5608857274055481 -0.00658566877245903
000090 00 00 00 40 a7 78 e1 3f 00 00 00 c0 95 eb dc 3f
       0.5459781885147095 0.45187896490097046
0000a0 00 00 00 00 d6 cc a5 bf 00 00 00 20 57 69 e0 3f
       -0.04257839918136597 0.5128589272499084
0000b0 00 00 00 a0 fc 98 d8 3f 00 00 00 e0 42 04 b1 bf
       0.38433757424354553 -0.06647127121686935
0000c0 00 00 00 c0 b2 4c df 3f 00 00 00 40 f7 bf d4 3f
       0.4890562891960144 0.32421666383743286
0000d0 00 00 00 a0 79 d9 b4 bf 00 00 00 60 2a eb e4 3f
       -0.0814434066414833 0.6537067294120789
0000e0 00 00 00 a0 04 b1 e1 3f 00 00 00 c0 e7 88 98 bf
       0.5528586506843567 -0.023959752172231674
0000f0 00 00 00 20 d6 5f e3 3f 00 00 00 00 0c 5a da 3f
       0.6054487824440002 0.4117460250854492
000100 00 00 00 e0 fe 00 b1 bf 00 00 00 e0 59 47 e2 3f
       -0.06642144173383713 0.5712098479270935
000110 00 00 00 00 b2 af d4 3f 00 00 00 e0 4e 09 b8 bf
       0.3232235908508301 -0.09389203041791916
000120 00 00 00 60 1e 96 e1 3f 00 00 00 c0 50 9e cf 3f
       0.5495750308036804 0.24701890349388123
000130 00 00 00 e0 d8 ef ba bf 00 00 00 e0 03 c0 e6 3f
       -0.10522227734327316 0.710939347743988
000140 00 00 00 e0 a6 9b e2 3f 00 00 00 c0 18 b1 a7 bf
       0.5815004706382751 -0.046273015439510345
000150 00 00 00 80 c5 bb e4 3f 00 00 00 00 00 7f e1 3f
       0.6479213237762451 0.5467529296875
000160 00 00 00 a0 9f eb ba bf 00 00 00 80 f0 f5 e3 3f
       -0.10515782982110977 0.6237719058990479
000170 00 00 00 a0 32 95 e4 3f 00 00 00 20 31 05 bc bf
       0.643212616443634 -0.10945422202348709
000180 00 00 00 40 66 e7 e3 3f 00 00 00 a0 66 cd e6 3f
       0.6219969987869263 0.7125733494758606
000190 00 00 00 e0 93 e7 b7 bf 00 00 00 c0 dd 32 e8 3f
       -0.09337734431028366 0.7562092542648315
0001a0 00 00 00 c0 08 55 e4 3f 00 00 00 c0 44 33 b2 bf
       0.6353801488876343 -0.07109479606151581
0001b0 00 00 00 a0 61 f1 e5 3f 00 00 00 80 4b e6 e3 3f
       0.6857154965400696 0.6218621730804443
0001c0 00 00 00 c0 20 52 bc bf 00 00 00 c0 e7 1c e5 3f
       -0.1106281727552414 0.6597784757614136
0001d0 00 00 00 60 27 39 e6 3f 00 00 00 00 f2 aa ba bf
       0.6944767832756042 -0.10417091846466064
0001e0 00 00 00 20 20 2b e5 3f 00 00 00 c0 69 01 e8 3f
       0.6615143418312073 0.75017249584198
0001f0 00 00 00 20 5c 94 b6 bf
       -0.08820129185914993
