ISL_DATA/B/B_8.npy (npy, 632 bytes, 1 tensors)

array f8 [63]
000000 00 00 00 60 fb 5b e5 3f 00 00 00 c0 a6 01 ea 3f
       0.6674782633781433 0.8127015829086304
000010 00 00 00 e0 b7 dc 8c 3e 00 00 00 e0 7f be e3 3f
       2.1504000358163466e-07 0.6170043349266052
000020 00 00 00 00 51 0f e8 3f 00 00 00 80 30 64 84 bf
       0.7518696784973145 -0.0099567212164402
000030 00 00 00 40 d7 d6 e2 3f 00 00 00 00 9d 45 e5 3f
       0.5887256860733032 0.6647477149963379
000040 00 00 00 20 dc b3 90 bf 00 00 00 c0 8c 5b e3 3f
       -0.01631111092865467 0.6049255132675171
000050 00 00 00 80 c7 ba e2 3f 00 00 00 00 9c e7 9d bf
       0.5853002071380615 -0.029203832149505615
000060 00 00 00 e0 19 c5 e4 3f 00 00 00 a0 a6 9e e1 3f
       0.6490601897239685 0.5506165623664856
000070 00 00 00 60 3a 0b a5 bf 00 00 00 00 24 e6 e3 3f
       -0.04110128805041313 0.6218433380126953
000080 00 00 00 c0 92 f5 e2 3f 00 00 00 40 75 9b 8a 3f
       0.5924772024154663 0.012991825118660927
000090 00 00 00 a0 ad 10 e3 3f 00 00 00 a0 b3 65 e0 3f
       0.595785915851593 0.5124147534370422
0000a0 00 00 00 20 43 e0 77 bf 00 00 00 40 99 76 e2 3f
       -0.005829107481986284 0.5769773721694946
0000b0 00 00 00 00 e7 c1 dd 3f 00 00 00 40 98 71 93 bf
       0.46495985984802246 -0.01898801699280739
0000c0 00 00 00 a0 89 00 e2 3f 00 00 00 c0 6a 02 db 3f
       0.5625656247138977 0.4220225214958191
0000d0 00 00 00 60 b3 bb 9c bf 00 00 00 00 10 02 e5 3f
       -0.02805977128446102 0.6565017700195312
0000e0 00 00 00 80 28 b4 e2 3f 00 00 00 60 c3 ec 41 3f
       0.5844919681549072 0.0005470231990329921
0000f0 00 00 00 20 2b 7b e4 3f 00 00 00 a0 ff b0 de 3f
       0.6400352120399475 0.47955313324928284
000100 00 00 00 a0 d8 a7 98 bf 00 00 00 40 ac df e3 3f
       -0.024077782407402992 0.6210538148880005
000110 00 00 00 20 57 d7 da 3f 00 00 00 80 21 b3 a4 bf
       0.4193933308124542 -0.04042915999889374
000120 00 00 00 80 a2 89 e3 3f 00 00 00 00 54 9d d7 3f
       0.610551118850708 0.36897754669189453
000130 00 00 00 e0 87 8f a8 bf 00 00 00 60 2b 2b e6 3f
       -0.04797005280852318 0.6927697062492371
000140 00 00 00 e0 ff 20 e3 3f 00 00 00 20 a8 f5 8f bf
       0.5977782607078552 -0.01560527179390192
000150 00 00 00 c0 8b 9c e5 3f 00 00 00 60 c9 bf e0 3f
       0.6753596067428589 0.5234114527702332
000160 00 00 00 a0 ff 2b ab bf 00 00 00 20 ab 14 e5 3f
       -0.053070057183504105 0.6587730050086975
000170 00 00 00 00 b4 0f e3 3f 00 00 00 a0 06 6c aa bf
       0.5956668853759766 -0.05160542204976082
000180 00 00 00 e0 80 03 e5 3f 00 00 00 60 e2 f3 e4 3f
       0.6566776633262634 0.6547710299491882
000190 00 00 00 80 07 4f a3 bf 00 00 00 e0 1f 54 e7 3f
       -0.03771232068538666 0.7290191054344177
0001a0 00 00 00 60 57 01 e4 3f 00 00 00 20 30 d5 a0 bf
       0.625163733959198 -0.03287649527192116
0001b0 00 00 00 a0 d3 6b e6 3f 00 00 00 00 0a 2e e2 3f
       0.7006624341011047 0.568120002746582
0001c0 00 00 00 c0 55 d3 ac bf 00 00 00 e0 82 d6 e5 3f
       -0.056299857795238495 0.6824354529380798
0001d0 00 00 00 a0 43 b9 e3 3f 00 00 00 80 05 7d a8 bf
       0.6163652539253235 -0.04782883822917938
0001e0 00 00 00 20 09 c6 e5 3f 00 00 00 60 5d 33 e5 3f
       0.6804242730140686 0.6625201106071472
0001f0 00 00 00 60 b1 d4 a1 bf
       -0.03482584282755852
